[net]
# Testing
# batch=1
# subdivisions=1
# Training
batch = 64
subdivisions = 16
width = 608
height = 608
channels = 3
momentum = 0.9
decay = 0.0005
angle = 0
saturation = 1.5
exposure = 1.5
hue = .1
second_index = 5

learning_rate = 0.001
burn_in = 1000
max_batches = 500200
policy = steps
steps = 400000,450000
scales = .1,.1

# 可见光主干-1

[convolutional]
batch_normalize = 1
filters = 32
size = 3
stride = 1
pad = 1
activation = leaky

# Downsample

[convolutional]
batch_normalize = 1
filters = 64
size = 3
stride = 2
pad = 1
activation = leaky

[convolutional]
batch_normalize = 1
filters = 32
size = 1
stride = 1
pad = 1
activation = leaky

[convolutional]
batch_normalize = 1
filters = 64
size = 3
stride = 1
pad = 1
activation = leaky

[shortcut]
from = -3
activation = linear

# 红外光主干-1

[convolutional]
batch_normalize = 1
filters = 32
size = 3
stride = 1
pad = 1
activation = leaky

# Downsample

[convolutional]
batch_normalize = 1
filters = 64
size = 3
stride = 2
pad = 1
activation = leaky

[convolutional]
batch_normalize = 1
filters = 32
size = 1
stride = 1
pad = 1
activation = leaky

[convolutional]
batch_normalize = 1
filters = 64
size = 3
stride = 1
pad = 1
activation = leaky

[shortcut]
from = -3
activation = linear

# 第一阶段fusion

[shortcut]
from = 4
weights_type = 1.0
activation = linear

[convolutional]
batch_normalize = 1
filters = 64
size = 3
stride = 1
pad = 1
activation = leaky

# 第一阶段fusion end

[shortcut]
from = 4
weights_type = 1.0
activation = linear

[convolutional]
batch_normalize = 1
filters = 128
size = 3
stride = 2
pad = 1
activation = leaky

[convolutional]
batch_normalize = 1
filters = 64
size = 1
stride = 1
pad = 1
activation = leaky

[convolutional]
batch_normalize = 1
filters = 128
size = 3
stride = 1
pad = 1
activation = leaky

[shortcut]
from = -3
weights_type = 1.0
activation = linear

[convolutional]
batch_normalize = 1
filters = 64
size = 1
stride = 1
pad = 1
activation = leaky

[convolutional]
batch_normalize = 1
filters = 128
size = 3
stride = 1
pad = 1
activation = leaky

[shortcut]
from = -3
activation = linear

[route]
layers = 11

[shortcut]
from = 9
weights_type = 1.0
activation = linear

[convolutional]
batch_normalize = 1
filters = 128
size = 3
stride = 2
pad = 1
activation = leaky

[convolutional]
batch_normalize = 1
filters = 64
size = 1
stride = 1
pad = 1
activation = leaky

[convolutional]
batch_normalize = 1
filters = 128
size = 3
stride = 1
pad = 1
activation = leaky

[shortcut]
from = -3
activation = linear

[convolutional]
batch_normalize = 1
filters = 64
size = 1
stride = 1
pad = 1
activation = leaky

[convolutional]
batch_normalize = 1
filters = 128
size = 3
stride = 1
pad = 1
activation = leaky

[shortcut]
from = -3
activation = linear

# 第二阶段fusion

[shortcut]
from = 19
weights_type = 1.0
activation = linear

[convolutional]
batch_normalize = 1
filters = 128
size = 3
stride = 1
pad = 1
activation = leaky

# 第二阶段fusion end

[shortcut]
from = 19
weights_type = 1.0
activation = linear

[convolutional]
batch_normalize = 1
filters = 256
size = 3
stride = 2
pad = 1
activation = leaky

[convolutional]
batch_normalize = 1
filters = 128
size = 1
stride = 1
pad = 1
activation = leaky

[convolutional]
batch_normalize = 1
filters = 256
size = 3
stride = 1
pad = 1
activation = leaky

[shortcut]
from = -3
activation = linear

[convolutional]
batch_normalize = 1
filters = 128
size = 1
stride = 1
pad = 1
activation = leaky

[convolutional]
batch_normalize = 1
filters = 256
size = 3
stride = 1
pad = 1
activation = leaky

[shortcut]
from = -3
activation = linear

[convolutional]
batch_normalize = 1
filters = 128
size = 1
stride = 1
pad = 1
activation = leaky

[convolutional]
batch_normalize = 1
filters = 256
size = 3
stride = 1
pad = 1
activation = leaky

[shortcut]
from = -3
activation = linear

[convolutional]
batch_normalize = 1
filters = 128
size = 1
stride = 1
pad = 1
activation = leaky

[convolutional]
batch_normalize = 1
filters = 256
size = 3
stride = 1
pad = 1
activation = leaky

[shortcut]
from = -3
activation = linear


[convolutional]
batch_normalize = 1
filters = 128
size = 1
stride = 1
pad = 1
activation = leaky

[convolutional]
batch_normalize = 1
filters = 256
size = 3
stride = 1
pad = 1
activation = leaky

[shortcut]
from = -3
activation = linear

[convolutional]
batch_normalize = 1
filters = 128
size = 1
stride = 1
pad = 1
activation = leaky

[convolutional]
batch_normalize = 1
filters = 256
size = 3
stride = 1
pad = 1
activation = leaky

[shortcut]
from = -3
activation = linear

[convolutional]
batch_normalize = 1
filters = 128
size = 1
stride = 1
pad = 1
activation = leaky

[convolutional]
batch_normalize = 1
filters = 256
size = 3
stride = 1
pad = 1
activation = leaky

[shortcut]
from = -3
activation = linear

[convolutional]
batch_normalize = 1
filters = 128
size = 1
stride = 1
pad = 1
activation = leaky

[convolutional]
batch_normalize = 1
filters = 256
size = 3
stride = 1
pad = 1
activation = leaky

[shortcut]
from = -3
activation = linear

[route]
layers = 30

[shortcut]
from = 28
weights_type = 1.0
activation = linear

[convolutional]
batch_normalize = 1
filters = 256
size = 3
stride = 2
pad = 1
activation = leaky

[convolutional]
batch_normalize = 1
filters = 128
size = 1
stride = 1
pad = 1
activation = leaky

[convolutional]
batch_normalize = 1
filters = 256
size = 3
stride = 1
pad = 1
activation = leaky

[shortcut]
from = -3
activation = linear

[convolutional]
batch_normalize = 1
filters = 128
size = 1
stride = 1
pad = 1
activation = leaky

[convolutional]
batch_normalize = 1
filters = 256
size = 3
stride = 1
pad = 1
activation = leaky

[shortcut]
from = -3
activation = linear

[convolutional]
batch_normalize = 1
filters = 128
size = 1
stride = 1
pad = 1
activation = leaky

[convolutional]
batch_normalize = 1
filters = 256
size = 3
stride = 1
pad = 1
activation = leaky

[shortcut]
from = -3
activation = linear

[convolutional]
batch_normalize = 1
filters = 128
size = 1
stride = 1
pad = 1
activation = leaky

[convolutional]
batch_normalize = 1
filters = 256
size = 3
stride = 1
pad = 1
activation = leaky

[shortcut]
from = -3
activation = linear


[convolutional]
batch_normalize = 1
filters = 128
size = 1
stride = 1
pad = 1
activation = leaky

[convolutional]
batch_normalize = 1
filters = 256
size = 3
stride = 1
pad = 1
activation = leaky

[shortcut]
from = -3
activation = linear

[convolutional]
batch_normalize = 1
filters = 128
size = 1
stride = 1
pad = 1
activation = leaky

[convolutional]
batch_normalize = 1
filters = 256
size = 3
stride = 1
pad = 1
activation = leaky

[shortcut]
from = -3
activation = linear

[convolutional]
batch_normalize = 1
filters = 128
size = 1
stride = 1
pad = 1
activation = leaky

[convolutional]
batch_normalize = 1
filters = 256
size = 3
stride = 1
pad = 1
activation = leaky

[shortcut]
from = -3
activation = linear

[convolutional]
batch_normalize = 1
filters = 128
size = 1
stride = 1
pad = 1
activation = leaky

[convolutional]
batch_normalize = 1
filters = 256
size = 3
stride = 1
pad = 1
activation = leaky

[shortcut]
from = -3
activation = linear

# 第三阶段fusion

[shortcut]
from = 56
weights_type = 1.0
activation = linear

[convolutional]
batch_normalize = 1
filters = 256
size = 3
stride = 1
pad = 1
activation = leaky

# 第三阶段fusion end

[shortcut]
from = 56
weights_type = 1.0
activation = linear

[convolutional]
batch_normalize = 1
filters = 512
size = 3
stride = 2
pad = 1
activation = leaky

[convolutional]
batch_normalize = 1
filters = 256
size = 1
stride = 1
pad = 1
activation = leaky

[convolutional]
batch_normalize = 1
filters = 512
size = 3
stride = 1
pad = 1
activation = leaky

[shortcut]
from = -3
activation = linear


[convolutional]
batch_normalize = 1
filters = 256
size = 1
stride = 1
pad = 1
activation = leaky

[convolutional]
batch_normalize = 1
filters = 512
size = 3
stride = 1
pad = 1
activation = leaky

[shortcut]
from = -3
activation = linear


[convolutional]
batch_normalize = 1
filters = 256
size = 1
stride = 1
pad = 1
activation = leaky

[convolutional]
batch_normalize = 1
filters = 512
size = 3
stride = 1
pad = 1
activation = leaky

[shortcut]
from = -3
activation = linear


[convolutional]
batch_normalize = 1
filters = 256
size = 1
stride = 1
pad = 1
activation = leaky

[convolutional]
batch_normalize = 1
filters = 512
size = 3
stride = 1
pad = 1
activation = leaky

[shortcut]
from = -3
activation = linear

[convolutional]
batch_normalize = 1
filters = 256
size = 1
stride = 1
pad = 1
activation = leaky

[convolutional]
batch_normalize = 1
filters = 512
size = 3
stride = 1
pad = 1
activation = leaky

[shortcut]
from = -3
activation = linear


[convolutional]
batch_normalize = 1
filters = 256
size = 1
stride = 1
pad = 1
activation = leaky

[convolutional]
batch_normalize = 1
filters = 512
size = 3
stride = 1
pad = 1
activation = leaky

[shortcut]
from = -3
activation = linear


[convolutional]
batch_normalize = 1
filters = 256
size = 1
stride = 1
pad = 1
activation = leaky

[convolutional]
batch_normalize = 1
filters = 512
size = 3
stride = 1
pad = 1
activation = leaky

[shortcut]
from = -3
activation = linear

[convolutional]
batch_normalize = 1
filters = 256
size = 1
stride = 1
pad = 1
activation = leaky

[convolutional]
batch_normalize = 1
filters = 512
size = 3
stride = 1
pad = 1
activation = leaky

[shortcut]
from = -3
activation = linear

[route]
layers = 85

[shortcut]
from = 83
weights_type = 1.0
activation = linear

[convolutional]
batch_normalize = 1
filters = 512
size = 3
stride = 2
pad = 1
activation = leaky

[convolutional]
batch_normalize = 1
filters = 256
size = 1
stride = 1
pad = 1
activation = leaky

[convolutional]
batch_normalize = 1
filters = 512
size = 3
stride = 1
pad = 1
activation = leaky

[shortcut]
from = -3
activation = linear


[convolutional]
batch_normalize = 1
filters = 256
size = 1
stride = 1
pad = 1
activation = leaky

[convolutional]
batch_normalize = 1
filters = 512
size = 3
stride = 1
pad = 1
activation = leaky

[shortcut]
from = -3
activation = linear


[convolutional]
batch_normalize = 1
filters = 256
size = 1
stride = 1
pad = 1
activation = leaky

[convolutional]
batch_normalize = 1
filters = 512
size = 3
stride = 1
pad = 1
activation = leaky

[shortcut]
from = -3
activation = linear


[convolutional]
batch_normalize = 1
filters = 256
size = 1
stride = 1
pad = 1
activation = leaky

[convolutional]
batch_normalize = 1
filters = 512
size = 3
stride = 1
pad = 1
activation = leaky

[shortcut]
from = -3
activation = linear

[convolutional]
batch_normalize = 1
filters = 256
size = 1
stride = 1
pad = 1
activation = leaky

[convolutional]
batch_normalize = 1
filters = 512
size = 3
stride = 1
pad = 1
activation = leaky

[shortcut]
from = -3
activation = linear


[convolutional]
batch_normalize = 1
filters = 256
size = 1
stride = 1
pad = 1
activation = leaky

[convolutional]
batch_normalize = 1
filters = 512
size = 3
stride = 1
pad = 1
activation = leaky

[shortcut]
from = -3
activation = linear


[convolutional]
batch_normalize = 1
filters = 256
size = 1
stride = 1
pad = 1
activation = leaky

[convolutional]
batch_normalize = 1
filters = 512
size = 3
stride = 1
pad = 1
activation = leaky

[shortcut]
from = -3
activation = linear

[convolutional]
batch_normalize = 1
filters = 256
size = 1
stride = 1
pad = 1
activation = leaky

[convolutional]
batch_normalize = 1
filters = 512
size = 3
stride = 1
pad = 1
activation = leaky

[shortcut]
from = -3
activation = linear

# 第四阶段fusion

[shortcut]
from = 111
weights_type = 1.0
activation = linear

[convolutional]
batch_normalize = 1
filters = 512
size = 3
stride = 1
pad = 1
activation = leaky

# 第四阶段fusion end

[shortcut]
from = 111
weights_type = 1.0
activation = linear

[convolutional]
batch_normalize=1
filters=1024
size=3
stride=2
pad=1
activation=leaky

[convolutional]
batch_normalize=1
filters=512
size=1
stride=1
pad=1
activation=leaky

[convolutional]
batch_normalize=1
filters=1024
size=3
stride=1
pad=1
activation=leaky

[shortcut]
from=-3
activation=linear

[convolutional]
batch_normalize=1
filters=512
size=1
stride=1
pad=1
activation=leaky

[convolutional]
batch_normalize=1
filters=1024
size=3
stride=1
pad=1
activation=leaky

[shortcut]
from=-3
activation=linear

[convolutional]
batch_normalize=1
filters=512
size=1
stride=1
pad=1
activation=leaky

[convolutional]
batch_normalize=1
filters=1024
size=3
stride=1
pad=1
activation=leaky

[shortcut]
from=-3
activation=linear

[convolutional]
batch_normalize=1
filters=512
size=1
stride=1
pad=1
activation=leaky

[convolutional]
batch_normalize=1
filters=1024
size=3
stride=1
pad=1
activation=leaky

[shortcut]
from=-3
activation=linear

[route]
layers = 140

[shortcut]
from = 138
weights_type = 1.0
activation = linear

[convolutional]
batch_normalize=1
filters=1024
size=3
stride=2
pad=1
activation=leaky

[convolutional]
batch_normalize=1
filters=512
size=1
stride=1
pad=1
activation=leaky

[convolutional]
batch_normalize=1
filters=1024
size=3
stride=1
pad=1
activation=leaky

[shortcut]
from=-3
activation=linear

[convolutional]
batch_normalize=1
filters=512
size=1
stride=1
pad=1
activation=leaky

[convolutional]
batch_normalize=1
filters=1024
size=3
stride=1
pad=1
activation=leaky

[shortcut]
from=-3
activation=linear

[convolutional]
batch_normalize=1
filters=512
size=1
stride=1
pad=1
activation=leaky

[convolutional]
batch_normalize=1
filters=1024
size=3
stride=1
pad=1
activation=leaky

[shortcut]
from=-3
activation=linear

[convolutional]
batch_normalize=1
filters=512
size=1
stride=1
pad=1
activation=leaky

[convolutional]
batch_normalize=1
filters=1024
size=3
stride=1
pad=1
activation=leaky

[shortcut]
from=-3
activation=linear

# 第五阶段fusion

[shortcut]
from = 154
weights_type = 1.0
activation = linear

[convolutional]
batch_normalize = 1
filters = 1024
size = 3
stride = 1
pad = 1
activation = leaky

# 第五阶段fusion end

[convolutional]
batch_normalize = 1
filters = 512
size = 1
stride = 1
pad = 1
activation = leaky

[convolutional]
batch_normalize = 1
size = 3
stride = 1
pad = 1
filters = 1024
activation = leaky

[convolutional]
batch_normalize = 1
filters = 512
size = 1
stride = 1
pad = 1
activation = leaky

# spp

[maxpool]
stride = 1
size = 5

[route]
layers = -2

[maxpool]
stride = 1
size = 9

[route]
layers = -4

[maxpool]
stride = 1
size = 13

[route]
layers = -1,-3,-5,-6

# yolo part 1

[convolutional]
batch_normalize = 1
filters = 512
size = 1
stride = 1
pad = 1
activation = leaky


[convolutional]
batch_normalize = 1
size = 3
stride = 1
pad = 1
filters = 1024
activation = leaky

[convolutional]
batch_normalize = 1
filters = 512
size = 1
stride = 1
pad = 1
activation = leaky

[convolutional]
batch_normalize = 1
size = 3
stride = 1
pad = 1
filters = 1024
activation = leaky

[convolutional]
size = 1
stride = 1
pad = 1
filters = 18
activation = linear

[yolo]
mask = 6,7,8
anchors = 16, 42, 22, 44, 20, 53, 29, 53, 26, 64, 29, 85, 34, 75, 41, 104, 59, 147
classes = 1
num = 9
jitter = .3
ignore_thresh = .7
truth_thresh = 1
random = 1

# yolo part 2

[route]
layers = -4

[convolutional]
batch_normalize = 1
filters = 256
size = 1
stride = 1
pad = 1
activation = leaky

[upsample]
stride = 2

[route]
layers = -1,140

[convolutional]
batch_normalize = 1
filters = 256
size = 1
stride = 1
pad = 1
activation = leaky

[convolutional]
batch_normalize = 1
size = 3
stride = 1
pad = 1
filters = 512
activation = leaky

[convolutional]
batch_normalize = 1
filters = 256
size = 1
stride = 1
pad = 1
activation = leaky

[convolutional]
batch_normalize = 1
size = 3
stride = 1
pad = 1
filters = 512
activation = leaky

[convolutional]
batch_normalize = 1
filters = 256
size = 1
stride = 1
pad = 1
activation = leaky

[convolutional]
batch_normalize = 1
size = 3
stride = 1
pad = 1
filters = 512
activation = leaky

[convolutional]
size = 1
stride = 1
pad = 1
filters = 18
activation = linear

[yolo]
mask = 3,4,5
anchors = 16, 42, 22, 44, 20, 53, 29, 53, 26, 64, 29, 85, 34, 75, 41, 104, 59, 147
classes = 1
num = 9
jitter = .3
ignore_thresh = .7
truth_thresh = 1
random = 1

# yolo part 3

[route]
layers = -4

[convolutional]
batch_normalize = 1
filters = 128
size = 1
stride = 1
pad = 1
activation = leaky

[upsample]
stride = 2

[route]
layers = -1, 85

[convolutional]
batch_normalize = 1
filters = 128
size = 1
stride = 1
pad = 1
activation = leaky

[convolutional]
batch_normalize = 1
size = 3
stride = 1
pad = 1
filters = 256
activation = leaky

[convolutional]
batch_normalize = 1
filters = 128
size = 1
stride = 1
pad = 1
activation = leaky

[convolutional]
batch_normalize = 1
size = 3
stride = 1
pad = 1
filters = 256
activation = leaky

[convolutional]
batch_normalize = 1
filters = 128
size = 1
stride = 1
pad = 1
activation = leaky

[convolutional]
batch_normalize = 1
size = 3
stride = 1
pad = 1
filters = 256
activation = leaky

[convolutional]
size = 1
stride = 1
pad = 1
filters = 18
activation = linear


[yolo]
mask = 0,1,2
anchors = 16, 42, 22, 44, 20, 53, 29, 53, 26, 64, 29, 85, 34, 75, 41, 104, 59, 147
classes = 1
num = 9
jitter = .3
ignore_thresh = .7
truth_thresh = 1
random = 1